[2022-06-30 16:19:13,631][vision_transformer][INFO] - getting model 'vision_transformer' from torch hub
[2022-06-30 16:19:14,800][vision_transformer][INFO] - model: 'VisionTransformer' is successfully loaded
[2022-06-30 16:19:14,801][vision_transformer][INFO] - model structure: VisionTransformer(
  (conv_proj): Conv2d(3, 768, kernel_size=(16, 16), stride=(16, 16))
  (encoder): Encoder(
    (dropout): Dropout(p=0.0, inplace=False)
    (layers): Sequential(
      (encoder_layer_0): EncoderBlock(
        (ln_1): LayerNorm((768,), eps=1e-06, elementwise_affine=True)
        (self_attention): MultiheadAttention(
          (out_proj): NonDynamicallyQuantizableLinear(in_features=768, out_features=768, bias=True)
        )
        (dropout): Dropout(p=0.0, inplace=False)
        (ln_2): LayerNorm((768,), eps=1e-06, elementwise_affine=True)
        (mlp): MLPBlock(
          (linear_1): Linear(in_features=768, out_features=3072, bias=True)
          (act): GELU()
          (dropout_1): Dropout(p=0.0, inplace=False)
          (linear_2): Linear(in_features=3072, out_features=768, bias=True)
          (dropout_2): Dropout(p=0.0, inplace=False)
        )
      )
      (encoder_layer_1): EncoderBlock(
        (ln_1): LayerNorm((768,), eps=1e-06, elementwise_affine=True)
        (self_attention): MultiheadAttention(
          (out_proj): NonDynamicallyQuantizableLinear(in_features=768, out_features=768, bias=True)
        )
        (dropout): Dropout(p=0.0, inplace=False)
        (ln_2): LayerNorm((768,), eps=1e-06, elementwise_affine=True)
        (mlp): MLPBlock(
          (linear_1): Linear(in_features=768, out_features=3072, bias=True)
          (act): GELU()
          (dropout_1): Dropout(p=0.0, inplace=False)
          (linear_2): Linear(in_features=3072, out_features=768, bias=True)
          (dropout_2): Dropout(p=0.0, inplace=False)
        )
      )
      (encoder_layer_2): EncoderBlock(
        (ln_1): LayerNorm((768,), eps=1e-06, elementwise_affine=True)
        (self_attention): MultiheadAttention(
          (out_proj): NonDynamicallyQuantizableLinear(in_features=768, out_features=768, bias=True)
        )
        (dropout): Dropout(p=0.0, inplace=False)
        (ln_2): LayerNorm((768,), eps=1e-06, elementwise_affine=True)
        (mlp): MLPBlock(
          (linear_1): Linear(in_features=768, out_features=3072, bias=True)
          (act): GELU()
          (dropout_1): Dropout(p=0.0, inplace=False)
          (linear_2): Linear(in_features=3072, out_features=768, bias=True)
          (dropout_2): Dropout(p=0.0, inplace=False)
        )
      )
      (encoder_layer_3): EncoderBlock(
        (ln_1): LayerNorm((768,), eps=1e-06, elementwise_affine=True)
        (self_attention): MultiheadAttention(
          (out_proj): NonDynamicallyQuantizableLinear(in_features=768, out_features=768, bias=True)
        )
        (dropout): Dropout(p=0.0, inplace=False)
        (ln_2): LayerNorm((768,), eps=1e-06, elementwise_affine=True)
        (mlp): MLPBlock(
          (linear_1): Linear(in_features=768, out_features=3072, bias=True)
          (act): GELU()
          (dropout_1): Dropout(p=0.0, inplace=False)
          (linear_2): Linear(in_features=3072, out_features=768, bias=True)
          (dropout_2): Dropout(p=0.0, inplace=False)
        )
      )
      (encoder_layer_4): EncoderBlock(
        (ln_1): LayerNorm((768,), eps=1e-06, elementwise_affine=True)
        (self_attention): MultiheadAttention(
          (out_proj): NonDynamicallyQuantizableLinear(in_features=768, out_features=768, bias=True)
        )
        (dropout): Dropout(p=0.0, inplace=False)
        (ln_2): LayerNorm((768,), eps=1e-06, elementwise_affine=True)
        (mlp): MLPBlock(
          (linear_1): Linear(in_features=768, out_features=3072, bias=True)
          (act): GELU()
          (dropout_1): Dropout(p=0.0, inplace=False)
          (linear_2): Linear(in_features=3072, out_features=768, bias=True)
          (dropout_2): Dropout(p=0.0, inplace=False)
        )
      )
      (encoder_layer_5): EncoderBlock(
        (ln_1): LayerNorm((768,), eps=1e-06, elementwise_affine=True)
        (self_attention): MultiheadAttention(
          (out_proj): NonDynamicallyQuantizableLinear(in_features=768, out_features=768, bias=True)
        )
        (dropout): Dropout(p=0.0, inplace=False)
        (ln_2): LayerNorm((768,), eps=1e-06, elementwise_affine=True)
        (mlp): MLPBlock(
          (linear_1): Linear(in_features=768, out_features=3072, bias=True)
          (act): GELU()
          (dropout_1): Dropout(p=0.0, inplace=False)
          (linear_2): Linear(in_features=3072, out_features=768, bias=True)
          (dropout_2): Dropout(p=0.0, inplace=False)
        )
      )
      (encoder_layer_6): EncoderBlock(
        (ln_1): LayerNorm((768,), eps=1e-06, elementwise_affine=True)
        (self_attention): MultiheadAttention(
          (out_proj): NonDynamicallyQuantizableLinear(in_features=768, out_features=768, bias=True)
        )
        (dropout): Dropout(p=0.0, inplace=False)
        (ln_2): LayerNorm((768,), eps=1e-06, elementwise_affine=True)
        (mlp): MLPBlock(
          (linear_1): Linear(in_features=768, out_features=3072, bias=True)
          (act): GELU()
          (dropout_1): Dropout(p=0.0, inplace=False)
          (linear_2): Linear(in_features=3072, out_features=768, bias=True)
          (dropout_2): Dropout(p=0.0, inplace=False)
        )
      )
      (encoder_layer_7): EncoderBlock(
        (ln_1): LayerNorm((768,), eps=1e-06, elementwise_affine=True)
        (self_attention): MultiheadAttention(
          (out_proj): NonDynamicallyQuantizableLinear(in_features=768, out_features=768, bias=True)
        )
        (dropout): Dropout(p=0.0, inplace=False)
        (ln_2): LayerNorm((768,), eps=1e-06, elementwise_affine=True)
        (mlp): MLPBlock(
          (linear_1): Linear(in_features=768, out_features=3072, bias=True)
          (act): GELU()
          (dropout_1): Dropout(p=0.0, inplace=False)
          (linear_2): Linear(in_features=3072, out_features=768, bias=True)
          (dropout_2): Dropout(p=0.0, inplace=False)
        )
      )
      (encoder_layer_8): EncoderBlock(
        (ln_1): LayerNorm((768,), eps=1e-06, elementwise_affine=True)
        (self_attention): MultiheadAttention(
          (out_proj): NonDynamicallyQuantizableLinear(in_features=768, out_features=768, bias=True)
        )
        (dropout): Dropout(p=0.0, inplace=False)
        (ln_2): LayerNorm((768,), eps=1e-06, elementwise_affine=True)
        (mlp): MLPBlock(
          (linear_1): Linear(in_features=768, out_features=3072, bias=True)
          (act): GELU()
          (dropout_1): Dropout(p=0.0, inplace=False)
          (linear_2): Linear(in_features=3072, out_features=768, bias=True)
          (dropout_2): Dropout(p=0.0, inplace=False)
        )
      )
      (encoder_layer_9): EncoderBlock(
        (ln_1): LayerNorm((768,), eps=1e-06, elementwise_affine=True)
        (self_attention): MultiheadAttention(
          (out_proj): NonDynamicallyQuantizableLinear(in_features=768, out_features=768, bias=True)
        )
        (dropout): Dropout(p=0.0, inplace=False)
        (ln_2): LayerNorm((768,), eps=1e-06, elementwise_affine=True)
        (mlp): MLPBlock(
          (linear_1): Linear(in_features=768, out_features=3072, bias=True)
          (act): GELU()
          (dropout_1): Dropout(p=0.0, inplace=False)
          (linear_2): Linear(in_features=3072, out_features=768, bias=True)
          (dropout_2): Dropout(p=0.0, inplace=False)
        )
      )
      (encoder_layer_10): EncoderBlock(
        (ln_1): LayerNorm((768,), eps=1e-06, elementwise_affine=True)
        (self_attention): MultiheadAttention(
          (out_proj): NonDynamicallyQuantizableLinear(in_features=768, out_features=768, bias=True)
        )
        (dropout): Dropout(p=0.0, inplace=False)
        (ln_2): LayerNorm((768,), eps=1e-06, elementwise_affine=True)
        (mlp): MLPBlock(
          (linear_1): Linear(in_features=768, out_features=3072, bias=True)
          (act): GELU()
          (dropout_1): Dropout(p=0.0, inplace=False)
          (linear_2): Linear(in_features=3072, out_features=768, bias=True)
          (dropout_2): Dropout(p=0.0, inplace=False)
        )
      )
      (encoder_layer_11): EncoderBlock(
        (ln_1): LayerNorm((768,), eps=1e-06, elementwise_affine=True)
        (self_attention): MultiheadAttention(
          (out_proj): NonDynamicallyQuantizableLinear(in_features=768, out_features=768, bias=True)
        )
        (dropout): Dropout(p=0.0, inplace=False)
        (ln_2): LayerNorm((768,), eps=1e-06, elementwise_affine=True)
        (mlp): MLPBlock(
          (linear_1): Linear(in_features=768, out_features=3072, bias=True)
          (act): GELU()
          (dropout_1): Dropout(p=0.0, inplace=False)
          (linear_2): Linear(in_features=3072, out_features=768, bias=True)
          (dropout_2): Dropout(p=0.0, inplace=False)
        )
      )
    )
    (ln): LayerNorm((768,), eps=1e-06, elementwise_affine=True)
  )
  (heads): Linear(in_features=768, out_features=365, bias=True)
)
[2022-06-30 16:19:14,801][vision_transformer][INFO] - starting dcgm recoder subprocess...
[2022-06-30 16:19:14,819][vision_transformer][INFO] - dcgm recoder process pid=3465 is running now.
[2022-06-30 16:19:14,821][vision_transformer][INFO] - Params to learn:
	class_token	conv_proj.weight	conv_proj.bias	encoder.pos_embedding	encoder.layers.encoder_l
…
